…
0 ]} for k in data_config . input_names }, ** { 'softmax' :{ 0 : 'N' }}}, } print ( model , model_info ) print ( data_config . input_shapes ) return model , model_info def get_loss ( data_config , ** kwargs ): return torch . nn . CrossEntropyLoss () Below show the full structure of the DeepAK8 model based on 1D CNN with ResNet. It is printed by PyTorch and you will see it in the Weaver output during training. The full-scale structure of the DeepAK8 architecture ResNet( |0.349 M, 100.000% Params, 0.012 GMac, 100.000% MACs| (fts_conv): Sequential( |0.0 M, 0.137% Params, 0.0 GMac, 0.427% MACs| (0): Conv1d(4, 32, kernel_size=(3,), stride=(1,), padding=(1,), |0.0 M, 0.119% Params, 0.0 GMac, 0.347% MACs|) (1): BatchNorm1d(32, eps=1e-05, momentum=0.1, affine=True, track_running_stats=True, |0.0 M, 0.018% Params, 0.0 GMac, 0.053% MACs|) (2): ReLU(|0.0 M, 0.000% Params, 0.0 GMac, 0.027% MACs|) ) (resnet_units): ModuleDict( |0.282 M, 80.652% Params, 0.012 GMac, 99.010% MACs| (resnet_unit_0): Sequential( |0.046 M, 13.124% Params, 0.005 GMac, 38.409% MACs| (0): ResNetUnit( |0.021 M, 5.976% Params, 0.002 GMac, 17.497% MACs| (conv1): Conv1d(32, 64, kernel_size=(3,), stride=(1,), padding=(1,), |0.006 M, 1.778% Params, 0.001 GMac, 5.175% MACs|) (bn1): BatchNorm1d(64, eps=1e-05, momentum=0.1, affine=True, track_running_stats=True, |0.0 M, 0.037% Params, 0.0 GMac, 0.107% MACs|) (conv2): Conv1d(64, 64, kernel_size=(3,), stride=(1,), padding=(1,), |0.012 M, 3.538% Params, 0.001 GMac, 10.296% MACs|) (bn2): BatchNorm1d(64, eps=1e-05, momentum=0.1, affine=True, track_running_stats=True, |0.0 M, 0.037% Params, 0.0 GMac, 0.107% MACs|) (relu): ReLU(|0.0 M, 0.000% Params, 0.0 GMac, 0.107% MACs|) (conv_sc): Conv1d(32, 64, kernel_size=(1,), stride=(1,), bias=False, |0.002 M, 0.587% Params, 0.0 GMac, 1.707% MACs|) ) (1): ResNetUnit( |0.025 M, 7.149% Params, 0.003 GMac, 20.912% MACs| (conv1): Conv1d(64, 64, kernel_size=(3,), stride=(1,), padding=(1,), |0.012 M, 3.538% Params, 0.001 GMac, 10.296% MACs|) (bn1): BatchNorm1d(64, eps=1e-05, momentum=0.1, affine=True, track_running_stats=True, |0.0 M, 0.037% Params, 0.0 GMac, 0.107% MACs|) (conv2): Conv1d(64, 64, kernel_size=(3,), stride=(1,), padding=(1,), |0.012 M, 3.538% Params, 0.001 GMac, 10.296% MACs|) (bn2): BatchNorm1d(64, eps=1e-05, momentum=0.1, affine=True, track_running_stats=True, |0.0 M, 0.037% Params, 0.0 GMac, 0.107% MACs|) (relu): ReLU(|0.0 M, 0.000% Params, 0.0 GMac, 0.107% MACs|) ) ) (resnet_unit_1): Sequential( |0.054 M, 15.471% Params, 0.003 GMac, 22.619% MACs| (0): ResNetUnit( |0.029 M, 8.322% Params, 0.001 GMac, 12.163% MACs| (conv1): Conv1d(64, 64, kernel_size=(3,), stride=(2,), padding=(1,), |0.012 M, 3.538% Params, 0.001 GMac, 5.148% MACs|) (bn1): BatchNorm1d(64, eps=1e-05, momentum=0.1, affine=True, track_running_stats=True, |0.0 M, 0.037% Params, 0.0 GMac, 0.053% MACs|) (conv2): Conv1d(64, 64, kernel_size=(3,), stride=(1,), padding=(1,), |0.012 M, 3.538% Params, 0.001 GMac, 5.148% MACs|) (bn2): BatchNorm1d(64, eps=1e-05, momentum=0.1, affine=True, track_running_stats=True, |0.0 M, 0.037% Params, 0.0 GMac, 0.053% MACs|) (relu): ReLU(|0.0 M, 0.000% Params, 0.0 GMac, 0.053% MACs|) (conv_sc): Conv1d(64, 64, kernel_size=(1,), stride=(2,), bias=False, |0.004 M, 1.173% Params, 0.0 GMac, 1.707% MACs|) ) (1): ResNetUnit( |0.025 M, 7.149% Params, 0.001 GMac, 10.456% MACs| (conv1): Conv1d(64, 64, kernel_size=(3,), stride=(1,), padding=(1,), |0.012 M, 3.538% Params, 0.001 GMac, 5.148% MACs|) (bn1): BatchNorm1d(64, eps=1e-05, momentum=0.1, affine=True, track_running_stats=True, |0.0 M, 0.037% Params, 0.0 GMac, 0.053% MACs|) (conv2): Conv1d(64, 64, kernel_size=(3,), stride=(1,), padding=(1,), |0.012 M, 3.538% Params, 0.001 GMac, 5.148% MACs|) (bn2): BatchNorm1d(64, eps=1e-05, momentum=0.1, affine=True, track_running_stats=True, |0.0 M, 0.037% Params, 0.0 GMac, 0.053% MACs|) (relu): ReLU(|0.0 M, 0.000% Params, 0.0 GMac, 0.053% MACs|) ) ) (resnet_unit_2): Sequential( |0.182 M, 52.057% Params, 0.005 GMac, 37.982% MACs| (0): ResNetUnit( |0.083 M, 23.682% Params, 0.002 GMac, 17.284% MACs| (conv1): Conv1d(64, 128, kernel_size=(3,), stride=(2,), padding=(1,), |0.025 M, 7.075% Params, 0.001 GMac, 5.148% MACs|) (bn1): BatchNorm1d(128, eps=1e-05, momentum=0.1, affine=True, track_running_stats=True, |0.0 M, 0.073% Params, 0.0 GMac, 0.053% MACs|) (conv2): Conv1d(128, 128, kernel_size=(3,), stride=(1,), padding=(1,), |0.049 M, 14.114% Params, 0.001 GMac, 10.269% MACs|) (bn2): BatchNorm1d(128, eps=1e-05, momentum=0.1, affine=True, track_running_stats=True, |0.0 M, 0.073% Params, 0.0 GMac, 0.053% MACs|) (relu): ReLU(|0.0 M, 0.000% Params, 0.0 GMac, 0.053% MACs|) (conv_sc): Conv1d(64, 128, kernel_size=(1,), stride=(2,), bias=False, |0.008 M, 2.346% Params, 0.0 GMac, 1.707% MACs|) ) (1): ResNetUnit( |0.099 M, 28.375% Params, 0.002 GMac, 20.698% MACs| (conv1): Conv1d(128, 128, kernel_size=(3,), stride=(1,), padding=(1,), |0.049 M, 14.114% Params, 0.001 GMac, 10.269% MACs|) (bn1): BatchNorm1d(128, eps=1e-05, momentum=0.1, affine=True, track_running_stats=True, |0.0 M, 0.073% Params, 0.0 GMac, 0.053% MACs|) (conv2): Conv1d(128, 128, kernel_size=(3,), stride=(1,), padding=(1,), |0.049 M, 14.114% Params, 0.001 GMac, 10.269% MACs|) (bn2): BatchNorm1d(128, eps=1e-05, momentum=0.1, affine=True, track_running_stats=True, |0.0 M, 0.073% Params, 0.0 GMac, 0.053% MACs|) (relu): ReLU(|0.0 M, 0.000% Params, 0.0 GMac, 0.053% MACs|) ) ) ) (fc): Sequential( |0.067 M, 19.210% Params, 0.0 GMac, 0.563% MACs| (0): Sequential( |0.066 M, 18.917% Params, 0.0 GMac, 0.555% MACs| (0): Linear(in_features=128, out_features=512, bias=True, |0.066 M, 18.917% Params, 0.0 GMac, 0.551% MACs|) (1): ReLU(|0.0 M, 0.000% Params, 0.0 GMac, 0.004% MACs|) (2): Dropout(p=0.2, inplace=False, |0.0 M, 0.000% Params, 0.0 GMac, 0.000% MACs|) ) (1): Linear(in_features=512, out_features=2, bias=True, |0.001 M, 0.294% Params, 0.0 GMac, 0.009% MACs|) ) ) The data card is the same as the MLP case, shown in data/top/pf_features.yaml . ParticleNet (DGCNN) Note The ParticleNet model applied to the CMS analysis is provided in networks/particlenet_pf_sv.py , and the data card in data/ak15_points_pf_sv.yaml . Here we use a similar configuration card to deal w
…
EdgeConv blocks and the fully connected layer. See details in the above \"ParticleNet model implementation\" box. conv_params = [ ( 16 , ( 64 , 64 , 64 )), ( 16 , ( 128 , 128 , 128 )), ( 16 , ( 256 , 256 , 256 )), ] fc_params = [( 256 , 0.1 )] A full structure printed from PyTorch is shown below. It will appear in the Weaver output during training. ParticleNet full-scale structure ParticleNetTagger1Path( |0.577 M, 100.000% Params, 0.441 GMac, 100.000% MACs| (pf_conv): FeatureConv( |0.0 M, 0.035% Params, 0.0 GMac, 0.005% MACs| (conv): Sequential( |0.0 M, 0.035% Params, 0.0 GMac, 0.005% MACs| (0): BatchNorm1d(4, eps=1e-05, momentum=0.1, affine=True, track_running_stats=True, |0.0 M, 0.001% Params, 0.0 GMac, 0.000% MACs|) (1): Conv1d(4, 32, kernel_size=(1,), stride=(1,), bias=False, |0.0 M, 0.022% Params, 0.0 GMac, 0.003% MACs|) (2): BatchNorm1d(32, eps=1e-05, momentum=0.1, affine=True, track_running_stats=True, |0.0 M, 0.011% Params, 0.0 GMac, 0.001% MACs|) (3): ReLU(|0.0 M, 0.000% Params, 0.0 GMac, 0.001% MACs|) ) ) (pn): ParticleNet( |0.577 M, 99.965% Params, 0.441 GMac, 99.995% MACs| (edge_convs): ModuleList( |0.305 M, 52.823% Params, 0.424 GMac, 96.047% MACs| (0): EdgeConvBlock( |0.015 M, 2.575% Params, 0.021 GMac, 4.716% MACs| (convs): ModuleList( |0.012 M, 2.131% Params, 0.02 GMac, 4.456% MACs| (0): Conv2d(64, 64, kernel_size=(1, 1), stride=(1, 1), bias=False, |0.004 M, 0.710% Params, 0.007 GMac, 1.485% MACs|) (1): Conv2d(64, 64, kernel_size=(1, 1), stride=(1, 1), bias=False, |0.004 M, 0.710% Params, 0.007 GMac, 1.485% MACs|) (2): Conv2d(64, 64, kernel_size=(1, 1), stride=(1, 1), bias=False, |0.004 M, 0.710% Params, 0.007 GMac, 1.485% MACs|) ) (bns): ModuleList( |0.0 M, 0.067% Params, 0.001 GMac, 0.139% MACs| (0): BatchNorm2d(64, eps=1e-05, momentum=0.1, affine=True, track_running_stats=True, |0.0 M, 0.022% Params, 0.0 GMac, 0.046% MACs|) (1): BatchNorm2d(64, eps=1e-05, momentum=0.1, affine=True, track_running_stats=True, |0.0 M, 0.022% Params, 0.0 GMac, 0.046% MACs|) (2): BatchNorm2d(64, eps=1e-05, momentum=0.1, affine=True, track_running_stats=True, |0.0 M, 0.022% Params, 0.0 GMac, 0.046% MACs|) ) (acts): ModuleList( |0.0 M, 0.000% Params, 0.0 GMac, 0.070% MACs| (0): ReLU(|0.0 M, 0.000% Params, 0.0 GMac, 0.023% MACs|) (1): ReLU(|0.0 M, 0.000% Params, 0.0 GMac, 0.023% MACs|) (2): ReLU(|0.0 M, 0.000% Params, 0.0 GMac, 0.023% MACs|) ) (sc): Conv1d(32, 64, kernel_size=(1,), stride=(1,), bias=False, |0.002 M, 0.355% Params, 0.0 GMac, 0.046% MACs|) (sc_bn): BatchNorm1d(64, eps=1e-05, momentum=0.1, affine=True, track_running_stats=True, |0.0 M, 0.022% Params, 0.0 GMac, 0.003% MACs|) (sc_act): ReLU(|0.0 M, 0.000% Params, 0.0 GMac, 0.001% MACs|) ) (1): EdgeConvBlock( |0.058 M, 10.121% Params, 0.081 GMac, 18.437% MACs| (convs): ModuleList( |0.049 M, 8.523% Params, 0.079 GMac, 17.825% MACs| (0): Conv2d(128, 128, kernel_size=(1, 1), stride=(1, 1), bias=False, |0.016 M, 2.841% Params, 0.026 GMac, 5.942% MACs|) (1): Conv2d(128, 128, kernel_size=(1, 1), stride=(1, 1), bias=False, |0.016 M, 2.841% Params, 0.026 GMac, 5.942% MACs|) (2): Conv2d(128, 128, kernel_size=(1, 1), stride=(1, 1), bias=False, |0.016 M, 2.841% Params, 0.026 GMac, 5.942% MACs|) ) (bns): ModuleList( |0.001 M, 0.133% Params, 0.001 GMac, 0.279% MACs| (0): BatchNorm2d(128, eps=1e-05, momentum=0.1, affine=True, track_running_stats=True, |0.0 M, 0.044% Params, 0.0 GMac, 0.093% MACs|) (1): BatchNorm2d(128, eps=1e-05, momentum=0.1, affine=True, track_running_stats=True, |0.0 M, 0.044% Params, 0.0 GMac, 0.093% MACs|) (2): BatchNorm2d(128, eps=1e-05, momentum=0.1, affine=True, track_running_stats=True, |0.0 M, 0.044% Params, 0.0 GMac, 0.093% MACs|) ) (acts): ModuleList( |0.0 M, 0.000% Params, 0.001 GMac, 0.139% MACs| (0): ReLU(|0.0 M, 0.000% Params, 0.0 GMac, 0.046% MACs|) (1): ReLU(|0.0 M, 0.000% Params, 0.0 GMac, 0.046% MACs|) (2): ReLU(|0.0 M, 0.000% Params, 0.0 GMac, 0.046% MACs|) ) (sc): Conv1d(64, 128, kernel_size=(1,), stride=(1,), bias=False, |0.008 M, 1.420% Params, 0.001 GMac, 0.186% MACs|) (sc_bn): BatchNorm1d(128, eps=1e-05, momentum=0.1, affine=True, track_running_stats=True, |0.0 M, 0.044% Params, 0.0 GMac, 0.006% MACs|) (sc_act): ReLU(|0.0 M, 0.000% Params, 0.0 GMac, 0.003% MACs|) ) (2): EdgeConvBlock( |0.231 M, 40.128% Params, 0.322 GMac, 72.894% MACs| (convs): ModuleList( |0.197 M, 34.091% Params, 0.315 GMac, 71.299% MACs| (0): Conv2d(256, 256, kernel_size=(1, 1), stride=(1, 1), bias=False, |0.066 M, 11.364% Params, 0.105 GMac, 23.766% MACs|) (1): Conv2d(256, 256, kernel_size=(1, 1), stride=(1, 1), bias=False, |0.066 M, 11.364% Params, 0.105 GMac, 23.766% MACs|) (2): Conv2d(256, 256, kernel_size=(1, 1), stride=(1, 1), bias=False, |0.066 M, 11.364% Params, 0.105 GMac, 23.766% MACs|) ) (bns): ModuleList( |0.002 M, 0.266% Params, 0.002 GMac, 0.557% MACs| (0): BatchNorm2d(256, eps=1e-05, momentum=0.1, affine=True, track_running_stats=True, |0.001 M, 0.089% Params, 0.001 GMac, 0.186% MACs|) (1): BatchNorm2d(256, eps=1e-05, momentum=0.1, affine=True, track_running_stats=True, |0.001 M, 0.089% Params, 0.001 GMac, 0.186% MACs|) (2): BatchNorm2d(256, eps=1e-05, momentum=0.1, affine=True, track_running_stats=True, |0.001 M, 0.089% Params, 0.001 GMac, 0.186% MACs|) ) (acts): ModuleList( |0.0 M, 0.000% Params, 0.001 GMac, 0.279% MACs| (0): ReLU(|0.0 M, 0.000% Params, 0.0 GMac, 0.093% MACs|) (1): ReLU(|0.0 M, 0.000% Params, 0.0 GMac, 0.093% MACs|) (2): ReLU(|0.0 M, 0.000% Params, 0.0 GMac, 0.093% MACs|) ) (sc): Conv1d(128, 256, kernel_size=(1,), stride=(1,), bias=False, |0.033 M, 5.682% Params, 0.003 GMac, 0.743% MACs|) (sc_bn): BatchNorm1d(256, eps=1e-05, momentum=0.1, affine=True, track_running_stats=True, |0.001 M, 0.089% Params, 0.0 GMac, 0.012% MACs|) (sc_act): ReLU(|0.0 M, 0.000% Params, 0.0 GMac, 0.006% MACs|) ) ) (fusion_block): Sequential( |0.173 M, 29.963% Params, 0.017 GMac, 3.925% MACs| (0): Conv1d(448, 384, kernel_size=(1,), stride=(1,), bias=False, |0.172 M, 29.830% Params, 0.017 GMac, 3.899% MACs|) (1): BatchNorm1d(384, eps=1e-05, momentum=0.1, affine=True, track_running_stats=True, |0.001 M, 0.133% Params, 0.0 GMac, 0.017% MACs|) (2): ReLU(|0.0 M, 0.000% Params, 0.0 GMac, 0.009% MACs|) ) (fc): Sequential( |0.099 M, 17.179% Params, 0.0 GMac, 0.023% MACs| (0): Sequential( |0.099 M, 17.090% Params, 0.0 GMac, 0.022% MACs| (0): Linear(in_features=384, out_features=256, bias=True, |0.099 M, 17.090% Params, 0.0 GMac, 0.022% MACs|) (1): ReLU(|0.0 M, 0.000% Params, 0.0 GMac, 0.000% MACs|) (2): Dropout(p=0.1, inplace=False, |0.0 M, 0.000% Params, 0.0 GMac, 0.000% MACs|) ) (1): Linear(in_features=256, out_features=2, bias=True, |0.001 M, 0.089% Params, 0.0 GMac, 0.000% MACs|) ) ) ) The data card is shown in data/top/pf_features.yaml , given in a similar way as in the MLP example. Here we group the inputs into three classes: pf_points , pf_features and pf_masks . They correspond to the forward(self, pf_points, pf_features, pf_mask) prototype of our nn.Module model, and will send
…
